模型预测/game_recommendation_model.pth (torch, 107616 bytes, 4 tensors)

fc1.weight f4 [128, 102]
-0.000932247 0.00084872195 0.003031991 0.0031729357 0.025152665 0.0024871961 -0.035178054 -0.024337627
0.10907074 0.0042656776 0.00073529483 -0.0010539015 0.0031812845 0.0029330058 -0.003341189 0.0025803351
0.0033768762 -0.000841931 0.0025029804 -0.0024755695 0.0017941686 -0.00061710086 -0.11659022 0.69065696
-0.056525134 0.034627944 -0.026037892 -0.07115834 -0.018550372 0.031669095 -0.01925064 -0.05681925
-0.012196666 0.0047476673 0.0035885805 -0.062056065 0.034831192 -0.023381235 0.0017936517 -0.008515411
-0.040622376 0.01281154 -0.00051962974 -0.037765954 0.00085061544 -0.0072675017 -0.0035442002 0.08199116
-0.023287771 0.12314281 0.0031047012 0.003580944 -0.02740453 0.0037391938 0.02708741 0.0008983982
-0.017891247 0.01666003 -0.0032447935 0.0014659057 0.022239326 0.0040105893 0.00086288346 -0.005466452
-0.0036068996 -0.09291393 0.0042670723 0.027695937 0.0020152857 0.0031693354 -0.031727396 0.008597818
0.0078831045 0.011005629 0.070156105 -5.5934568e-05 0.27252385 -0.013272266 0.03833274 0.00121404
-0.038952895 -0.040585846 -0.092875205 0.0061512217 0.001207775 0.0037452818 0.03997245 0.038528442
0.0137459 -0.0050953897 -0.03199069 0.06876906 -0.005336146 0.010725273 0.016994355 -0.053931523
-0.057086866 0.0074951868 -0.059024297 -0.036341336 -0.019884275 0.024654875 0.00011720681 -0.0014141009
-0.004249789 0.0025814543 -0.082018934 0.036495313 -0.0074663144 0.06296068 0.0015827296 -0.00087037456
0.00044226192 0.00023645346 -0.31241316 0.20130761 0.033475026 0.0012764987 0.0015710888 0.00052698236
0.0015142504 0.0011287301 -0.29170445 -0.09832844 0.0009388326 0.047504924 -0.06214462 0.036203224
0.0072072595 -0.20267995 0.03936096 -0.12785879 -0.005286641 -0.028414091 -0.008944691 0.00032099322
0.0016569933 0.05563454 0.025618358 -0.18621607 -0.006133024 -0.008393002 -0.011606992 0.001971046
0.0025011557 -0.02088161 -0.034367993 -0.0038313963 -0.027687853 -0.033429947 0.0047818953 0.27170104
-0.0019606089 -0.0031608131 -0.08470393 0.11115801 -0.0123550985 8.088311e-06 -0.030570831 0.04157674
-0.20545822 0.7573893 0.0041400385 0.0017095113 0.5014474 0.014997436 -0.003968952 0.018604081
0.0027774354 0.08621354 -0.011526476 -0.023559673 -0.0078082737 -0.012490119 -0.014438757 -0.031267546
-0.1844743 -0.012997635 0.00029460507 -0.021390405 0.012988352 0.0032940533 -0.015050076 -0.019186595
-0.00421195 0.0011176746 0.0012357915 0.0020180754 0.0060335645 0.05016576 -0.09038835 -0.0049290024
-0.15026914 -0.017718311 -0.0037687009 -0.13119592 -0.12323585 -0.12746812 -0.124497935 0.08178825
-0.069966376 -0.07178135 -0.022829425 0.013082339 -0.0021505216 -0.00018879886 -0.083046004 0.001969424
0.014944673 -0.029323442 -0.026080122 0.062977195 0.0019409028 0.0027223616 0.00407603 0.0020385426
-0.117236964 0.0024867596 0.38524494 -0.00033442184 0.0019301553 0.001152188 0.0016312355 0.002353434
0.001269615 0.0031031396 0.0015265417 0.0012268665 -0.13228175 0.04899048 -0.072074085 -0.093918756
0.20660543 -0.01651607 -0.006458261 -0.14885849 -0.0048743333 0.003635318 0.005137616 -0.036452692
-0.17599484 -0.017674731 -0.0014083436 -0.051594753 -0.01583012 0.0034023728 0.0026786781 -0.0533946
0.034161724 -0.13378473 -0.06493579 -0.029813642 0.06944211 0.20385815 6.895486e-05 -0.0035195237
00000000: 0a62 74ba c47c 5e3a 5eb4 463b 07f1 4f3b
00000010: f60c ce3c 3a00 233b dd16 10bd b45f c7bc
00000020: 7b60 df3d 19c7 8b3b cdc0 403a 1123 8aba
00000030: 197d 503b ac37 403b d9f7 5abb d71a 293b
00000040: 954e 5d3b 08b5 5cba 0b09 243b 2a3d 22bb
00000050: 4f2a eb3a f0c4 21ba dac6 eebd e5ce 303f
00000060: e686 67bd 08d6 0d3d 6b4d d5bc 77bb 91bd
00000070: f3f6 97bc 74b7 013d 85b3 9dbc 4dbb 68bd
00000080: 86d4 47bc 5292 9b3b 642e 6b3b 802e 7ebd
00000090: 27ab 0e3d 018a bfbc f718 eb3a 3984 0bbc
000000a0: a663 26bd 7ee7 513c c337 08ba 79b0 1abd
000000b0: d6fb 5e3a 3924 eebb d045 68bb fbea a73d
000000c0: ffc5 bebc 4c32 fc3d 3e78 4b3b 45ae 6a3b
000000d0: 777f e0bc 430d 753b 6be6 dd3c 7c82 6b3a
000000e0: aa90 92bc 9e7a 883c 9aa6 54bb a223 c03a
000000f0: 3f2f b63c 436b 833b 2133 623a ec1f b3bb
00000100: bc61 6cbb a949 bebd ccd2 8b3b 97e2 e23c
00000110: e212 043b a0b4 4f3b 96f4 01bd dddd 0c3c
00000120: 2328 013c f450 343c 01ae 8f3d 499b 6ab8
00000130: 3f88 8b3e eb73 59bc cb02 1d3d 6c20 9f3a
00000140: 128d 1fbd 583d 26bd 5b35 bebd 3090 c93b
00000150: 344e 9e3a 6773 753b 27ba 233d 00d0 1d3d
00000160: 7c36 613c 3af7 a6bb ab08 03bd cbd6 8c3d
00000170: d6da aebb 0eb9 2f3c bf37 8b3c 4de7 5cbd
00000180: ebd3 69bd 2f9a f53b 76c3 71bd a7da 14bd
00000190: 59e4 a2bc 05f9 c93c edcc f538 5a59 b9ba
000001a0: d041 8bbb 9e2d 293b 8bf9 a7bd 1c7c 153d
000001b0: fca7 f4bb 87f1 803d 9873 cf3a d929 64ba
000001c0: 64df e739 7ef0 7739 9ef4 9fbe 9523 4e3e
000001d0: 1c1d 093d 3050 a73a feec cd3a 3025 0a3a
000001e0: d079 c63a e6f1 933a 495a 95be 6c60 c9bd
000001f0: fd1b 763a 8694 423d 5b8b 7ebd d549 143d
00000200: e02a ec3b 558b 4fbe f538 213d 6aed 02be
00000210: 8f3b adbb abc4 e8bc c18c 12bc fb4a a839
00000220: 782f d93a 0be1 633d 97dd d13c 6daf 3ebe
00000230: 89f7 c8bb cd82 09bc 412b 3ebc aa2c 013b
00000240: 6eea 233b e90f abbc 74c5 0cbd 2a18 7bbb
00000250: a3d1 e2bc d7ed 08bd 72b1 9c3b 661c 8b3e
00000260: 8f7d 00bb a525 4fbb 4179 adbd d0a6 e33d
00000270: 0a6d 4abc 08b3 0737 ae6f fabc 5f4c 2a3d
00000280: a463 52be 44e4 413f 29a9 873b ae11 e03a
00000290: db5e 003f ceb7 753c fc0d 82bb 9667 983c
000002a0: a205 363b b990 b03d 8bd9 3cbc 3700 c1bc
000002b0: 8cdc ffbb 5ba3 4cbc 8990 6cbc 6612 00bd
000002c0: d5e6 3cbe 08f4 54bc 3975 9a39 ee3a afbc
000002d0: 19cd 543c 0be1 573b 9894 76bc 352d 9dbc
000002e0: 6604 8abb f07e 923a 48fa a13a b041 043b
000002f0: 35b5 c53b 9d7a 4d3d 871d b9bd 7883 a1bb
00000300: 27e0 19be fe25 91bc 4ffc 76bb 3958 06be
00000310: 1463 fcbd 0187 02be c6f8 febd 9980 a73d
00000320: 884a 8fbd 1a02 93bd c604 bbbc 4f57 563c
00000330: c4ef 0cbb 4ff8 45b9 0614 aabd 7411 013b
00000340: 80da 743c b737 f0bc fba5 d5bc 30fa 803d
00000350: e465 fe3a a669 323b 3890 853b 1299 053b
00000360: ef19 f0bd e7f8 223b d33e c53e 5755 afb9
00000370: 44fd fc3a 0405 973a 2ecf d53a 123c 1a3b
00000380: 3669 a63a 0b5e 4b3b 3d16 c83a cfce a03a
00000390: de74 07be 3eaa 483d 949b 93bd 7a58 c0bd
000003a0: 6090 533e b64c 87bc d29f d3bb 5c6e 18be
000003b0: dfb8 9fbb 843e 6e3b 7259 a83b 6b4f 15bd
000003c0: fe37 34be 99ca 90bc 2b98 b8ba 0555 53bd
000003d0: 2bae 81bc 58fa 5e3b c38c 2f3b 4cb4 5abd
000003e0: 2aed 0b3d ddfe 08be 0efd 84bd bd3b f4bc
000003f0: aa37 8e3d 31c0 503e dc9b 9038 cfa7 66bb

fc1.bias f4 [128]
0.038799774 0.038786132 0.0801246 0.23944448 0.16153458 -0.15432617 0.11289741 -0.34486485
-1.2552711 0.08820199 -0.26884273 -0.06378584 0.13591097 -0.1931186 -0.008035588 -0.25597936
-0.20257689 -1.3791292 -0.6835202 1.4590559 -0.67779446 -0.31401935 0.20641232 -0.5450327
-0.0025054228 -1.023589 0.14722748 -0.03263427 -0.14348121 0.08717747 -0.47475109 -0.022848938
0.035683837 -1.3719283 0.32328695 0.20355 0.01273265 0.09449563 -0.25505158 0.11696469
-0.060549118 -0.69923294 -0.27349815 -0.137449 0.21284167 -0.085605845 -0.33829725 0.17817022
0.053127702 -0.02092924 -0.22893223 -1.0680395 -0.13395457 0.1137292 -0.19079904 -0.7216075
-0.5380579 0.21307981 -0.43773285 -0.87780833 -0.2999362 0.14843568 -0.23870526 0.057191715
-0.4364554 -0.37375158 -0.8265229 -0.39621574 0.110676385 -0.7138698 -0.008194246 -0.0942276
-0.25224254 -0.52446854 -0.42114043 -0.6541142 0.055089924 0.074987605 -0.28789684 -0.2980143
0.27641135 -0.26182452 -0.46403566 0.10945992 -0.430567 -0.3210152 0.25535354 -0.5155189
0.16491883 0.086050466 -0.36025923 0.0707206 -0.28885707 0.0055018826 -0.00545407 -0.62822115
-0.39865252 -0.47426486 0.21435842 -0.21187443 -0.5403567 -0.32010993 -0.38474196 -0.30939123
0.07678302 -0.2951087 0.08541247 -0.30561805 -0.41211927 -0.72285366 0.238193 -0.8281605
-0.41427827 0.086225845 0.09668759 -0.2967504 0.30505502 -0.32536975 -0.5896757 0.02449803
-0.24653886 -0.32699215 0.029229548 -0.025465628 -0.59339726 -0.5393916 0.16123661 0.12008895
00000000: 83ec 1e3d 35de 1e3d 5e18 a43d ef30 753e
00000010: 5269 253e ae07 1ebe c236 e73d 2092 b0be
00000020: b9ac a0bf 3fa3 b43d c1a5 89be 27a2 82bd
00000030: 3f2c 0b3e e2c0 45be b3a7 03bc ba0f 83be
00000040: 5170 4fbe 4e87 b0bf 2efb 2ebf 58c2 ba3f
00000050: f083 2dbf 25c7 a0be c05d 533e 4387 0bbf
00000060: 0532 24bb f704 83bf cdc2 163e 83ab 05bd
00000070: bdec 12be 1a8a b23d 9312 f3be b22d bbbc
00000080: 3729 123d 599b afbf de85 a53e 696f 503e
00000090: 9b9c 503c ed86 c13d 1f96 82be 2f8b ef3d
000000a0: 5a02 78bd ee00 33bf f307 8cbe 6ebf 0cbe
000000b0: 2bf3 593e 1e52 afbd 4c35 adbe 4172 363e
000000c0: 6f9c 593d cc73 abbc 366d 6abe 85b5 88bf
000000d0: 632b 09be dbea e83d d360 43be 45bb 38bf
000000e0: 2abe 09bf 9831 5a3e 851e e0be 0cb8 60bf
000000f0: 3d91 99be 86ff 173e 276f 74be dc41 6a3d
00000100: 1577 dfbe 5e5c bfbe 0197 53bf cadc cabe
00000110: 4daa e23d 2cc0 36bf 2941 06bc 66fa c0bd
00000120: ef25 81be 9243 06bf b89f d7be 0774 27bf
00000130: f9a5 613d 1a93 993d 3767 93be 5595 98be
00000140: ca85 8d3e dd0d 86be 1596 edbe 862c e03d
00000150: 4773 dcbe 1b5c a4be b3bd 823e 0cf9 03bf
00000160: 7be0 283e 3a3b b03d e673 b8be f6d5 903d
00000170: 13e5 93be 2349 b43b 0eb8 b2bb 1ad3 20bf
00000180: 2f1c ccbe d8d2 f2be c680 5b3e 9cf5 58be
00000190: d154 0abf 73e5 a3be e6fc c4be 8768 9ebe
000001a0: 6a40 9d3d 7d18 97be bcec ae3d f879 9cbe
000001b0: 4c01 d3be f00c 39bf dee8 733e 5402 54bf
000001c0: 481c d4be 2d97 b03d 2504 c63d abef 97be
000001d0: 2c30 9c3e dd96 a6be fdf4 16bf 18b0 c83c
000001e0: af74 7cbe 846b a7be ce72 ef3c 4b9d d0bc
000001f0: e2e8 17bf 9115 0abf 361b 253e 32f1 f53d

fc2.weight f4 [102, 128]
0.005672651 0.006191482 0.0068914937 0.014766128 -0.039447982 0.032775164 -0.0050137686 0.0014384689
-0.011297197 -0.042304788 0.044733755 -0.13432969 0.011245112 -0.0004344671 -0.08959668 -0.09182118
0.040408034 -0.02354707 -0.002998553 -0.001306205 0.008182801 0.020257205 0.0051981267 -0.017890379
0.011340191 0.07262617 0.010063099 -0.00071801397 0.0014744002 -0.065984294 0.056325085 -0.14051025
-0.014629303 -0.26139587 -0.0786133 0.008910332 -0.077014595 -0.684304 0.005513404 -0.012088746
-0.090466626 0.1497926 -0.09495669 -0.0016317534 0.013748415 -0.00041273137 -0.00090953446 0.018449351
-0.07134239 -0.12152049 0.00033487426 0.006955906 0.052250836 -0.05770722 -0.13492425 0.029661344
-0.03228609 -0.09278473 0.031373344 -0.000641385 -0.10061931 -0.027349234 0.11294815 -0.028089063
0.0035149432 -0.00030415272 0.0067505147 0.0031982444 0.0060838037 0.004511017 -0.0014960404 0.002273268
-0.00018566083 0.06002246 -0.023295468 0.0064263227 -0.01202982 0.020779027 -0.0071217576 -0.016369758
-0.076509595 0.044260133 0.6187356 -0.04619799 -0.02618923 -0.22516252 -0.024182528 -0.0068147117
-0.0149475355 0.008426865 0.014531998 0.00352962 0.015925528 0.007698514 -0.003688994 0.04109986
0.01005481 0.0047648028 -0.11782222 0.00086676574 0.02903097 0.0011820983 0.0123537555 0.0031306813
-0.00422455 -0.0013974231 -0.03895896 -0.0002831113 -0.013211058 -0.007818523 -0.07110347 0.0025778564
0.019099014 -0.014429443 -0.064871214 -0.002968973 -0.006055527 0.0012015117 0.012660372 -0.06871152
0.032012578 0.0016846603 0.0037290575 -0.03396603 -0.0043194634 -0.0054294174 -0.06803236 0.010607573
-3.1232208e-05 0.00019083977 0.00028711234 -0.0007661697 3.5008525e-06 9.4599665e-05 0.00011630662 -0.016626764
0.009816388 -0.00013753981 2.0360421e-05 0.00031692928 0.00014660318 8.2628794e-05 -8.07503e-05 0.00059949374
-0.00018185865 0.009113966 0.0005726087 1.1001447 0.04974437 -0.0029471559 9.750464e-06 -0.004266041
-0.0003682547 -0.27687687 -1.1126971e-05 0.00064634165 0.00036861244 0.000151717 -0.04160061 4.79941e-05
2.2961394e-05 0.02674043 1.7978527e-05 0.0004490869 0.0003997489 9.044051e-05 0.009780916 9.593706e-05
-0.00013051378 -0.02981903 -6.030564e-05 -0.00033599968 0.00047298812 0.00027975242 7.079012e-05 -0.00010565436
0.00041525406 0.000115173825 0.00057657715 -0.010799077 -4.326446e-05 -0.00036509396 0.00026728312 0.011873793
0.011390624 -0.00030719116 0.0039623245 -0.0009611743 2.2674756e-05 -6.575421e-05 5.548249e-05 0.00019289585
-0.014248019 2.1903797e-06 0.009250392 -0.010568082 -6.905949e-05 0.0038333205 3.2156026e-05 -0.0010905531
0.00033240972 -0.0010802255 -0.0021167435 0.04907834 -0.00021087589 -6.0947204e-05 -0.02128091 0.004350962
0.00033231336 0.00035529188 -0.00037502055 0.0004116825 -0.011157735 -0.00013010287 4.4986107e-05 0.0141557995
0.00022762074 -2.9462171e-06 0.010686269 -0.0004233395 0.0048101647 3.1157047e-05 -5.2843163e-05 -0.00017292396
0.00044376287 -0.017754858 0.00016820178 0.00036916632 0.017073784 0.0002836908 0.0013257036 0.007805
0.00019027517 -0.00044448522 -0.0005824611 -0.00017477937 0.0011540055 0.009692217 4.0230625e-05 -0.006459995
-0.034992713 0.00015613859 0.00047639606 -0.015854297 0.0007497408 0.0077756066 -0.0305932 -0.0002366858
0.00020251752 0.0051770858 -0.00038774958 0.00014381185 0.013598231 0.012766073 -0.00017498102 0.00012685353
00000000: a5e1 b93b eae1 ca3b 0ad2 e13b a1ed 713c
00000010: 3594 21bd 403f 063d 8a4a a4bb 028b bc3a
00000020: e117 39bc c947 2dbd be3a 373d b98d 09be
00000030: 6b3d 383c 30c9 e3b9 777e b7bd be0c bcbd
00000040: e582 253d c9e5 c0bc 5f83 44bb f834 abba
00000050: 2811 063c 70f2 a53c 0c55 aa3b d88e 92bc
00000060: 35cc 393c 08bd 943d b2df 243c 1a39 3cba
00000070: a940 c13a c622 87bd 22b5 663d ebe1 0fbe
00000080: beaf 6fbc aed5 85be 0300 a1bd a4fc 113c
00000090: d4b9 9dbd 8c2e 2fbf c9a9 b43b e00f 46bc
000000a0: 9146 b9bd 3b63 193e a778 c2bd 8fe0 d5ba
000000b0: 0841 613c de63 d8b9 d36d 6eba 1823 973c
000000c0: f51b 92bd bcdf f8bd 1092 af39 5eee e33b
000000d0: f904 563d 685e 6cbd 9529 0abe 59fc f23c
000000e0: 6b3e 04bd ec05 bebd 5681 003d 9e22 28ba
000000f0: 7f11 cebd 800b e0bc 5c51 e73d 091b e6bc
00000100: f65a 663b b076 9fb9 6c33 dd3b a399 513b
00000110: a55a c73b 27d1 933b c916 c4ba 1cfb 143b
00000120: f3ad 42b9 1cda 753d 23d6 bebc e793 d23b
00000130: b918 45bc c738 aa3c a25d e9bb df19 86bc
00000140: 10b1 9cbd 1d4a 353d 7565 1e3f 1b3a 3dbd
00000150: cc8a d6bc 0191 66be 701a c6bc f24d dfbb
00000160: 82e6 74bc d510 0a3c 9e17 6e3c 3251 673b
00000170: 4176 823c d143 fc3b 0dc3 71bb 5458 283d
00000180: eebc 243c 1022 9c3b c74c f1bd aa37 633a
00000190: 5bd2 ed3c a3f0 9a3a 6867 4a3c 1e2c 4d3b
000001a0: 186e 8abb bd29 b7ba 6e93 1fbd 8e6e 94b9
000001b0: 3273 58bc 4319 00bc b29e 91bd 41f1 283b
000001c0: 8975 9c3c 7869 6cbc 33db 84bd 1a93 42bb
000001d0: 716d c6bb 0b7c 9d3a 736d 4f3c a0b8 8cbd
000001e0: 9f1f 033d d2cf dc3a 3463 743b f71f 0bbd
000001f0: 498a 8dbb 41e9 b1bb 8d54 8bbd 63cb 2d3c
00000200: 54ff 02b8 291c 4839 9187 9639 c7d8 48ba
00000210: 30f0 6a36 cf63 c638 a4e9 f338 da34 88bc
00000220: ead4 203c 9038 10b9 accb aa37 8729 a639
00000230: 7eb9 1939 ff48 ad38 7d58 a9b8 5827 1d3a
00000240: 4fb1 3eb9 be52 153c 1f1b 163a 8bd1 8c3f
00000250: c1c0 4b3d 1225 41bb ed95 2337 25ca 8bbb
00000260: 4f12 c1b9 cec2 8dbe faad 3ab7 416f 293a
00000270: 5342 c139 3916 1f39 6765 2abd 464d 4938
00000280: 389d c037 bf0e db3c 98d0 9637 6c73 eb39
00000290: 6495 d139 e1aa bd38 2340 203c d131 c938
000002a0: 87da 08b9 0a47 f4bc b0f0 7cb8 1d29 b0b9
000002b0: 64fb f739 bcab 9239 2875 9438 c192 ddb8
000002c0: 75b6 d939 7a89 f138 7025 173a 9dee 30bc
000002d0: dc76 35b8 156a bfb9 2222 8c39 4c8a 423c
000002e0: bd9f 3a3c 800e a1b9 63d6 813b 51f7 7bba
000002f0: ab35 be37 86e5 89b8 dfb5 6838 1644 4a39
00000300: 8670 69bc 70fe 1236 f58e 173c c025 2dbc
00000310: 08d4 90b8 7238 7b3b 45df 0638 e4f0 8eba
00000320: 4747 ae39 5a96 8dba 10b9 0abb 5f06 493d
00000330: 911e 5db9 90a1 7fb8 4e55 aebc 8492 8e3b
00000340: 583a ae39 7846 ba39 689e c4b9 17d7 d739
00000350: efce 36bc 396c 08b9 77af 3c38 baed 673c
00000360: 7aad 6e39 a0b7 45b6 7615 2f3c aaf3 ddb9
00000370: 969e 9d3b a0ae 0238 eaa3 5db8 ec52 35b9
00000380: d8a8 e839 a372 91bc 525f 3039 aa8c c139
00000390: 52de 8b3c 56bc 9439 3bc3 ad3a 16c1 ff3b
000003a0: 9a84 4739 cc09 e9b9 4eb0 18ba fb44 37b9
000003b0: 0042 973a 1bcc 1e3c 4ebd 2838 5eae d3bb
000003c0: 8554 0fbd 22b9 2339 ccc4 f939 dfe0 81bc
000003d0: 418a 443a 84ca fe3b 979e fabc dc2e 78b9
000003e0: e25a 5439 8ba4 a93b de4a cbb9 33cc 1639
000003f0: 1dcb 5e3c cb28 513c 1c7b 37b9 fc03 0539

fc2.bias f4 [102]
0.72288674 -1.6056393 -0.12063343 -0.12626332 -0.12888403 -0.12909369 -0.120839015 -0.12186771
-0.11970395 -0.12397818 -0.166827 -0.119377136 -0.17594476 -0.12322716 -0.12119621 -0.17254183
-0.123329006 -0.12114543 -0.12268277 -0.12555806 -0.121416256 -0.12185714 -0.12202288 -0.12220169
-0.13034675 -0.12314209 -0.26640573 -0.1267051 -0.12798741 -0.16893555 -0.11838904 -0.12437314
-0.164727 -0.19133195 -0.20688334 -0.12888408 -0.1243731 -0.12109092 -0.123502016 -0.124154635
-0.12709725 -0.16241457 -0.24220023 -0.27006605 -0.12909363 -0.118976496 -0.17043662 -0.16597445
-0.12273993 -0.23405373 -0.20622683 -0.26154763 -0.12100627 -0.12053027 -0.16803677 -0.15917228
-0.11970474 -0.12365171 -0.14537348 -0.25990704 -0.12798734 -0.2337243 -0.236531 -0.121062666
-0.16433892 -0.16597445 -0.19603115 -0.12100624 -0.12273995 -0.123078115 -0.16803673 -0.16794768
-0.16585107 -0.12119622 -0.12655848 -0.1190614 -0.23119041 -0.1241546 -0.270066 -0.23390605
-0.2866366 -0.121992216 -0.12072124 -0.25608495 -0.119736016 -0.23108725 -0.120839 -0.11888079
-0.12186766 -0.23060356 -0.16893555 -0.12072108 -0.17348891 -0.121090926 -0.1187533 -0.12072047
-0.11960368 -0.11899715 -0.12314213 -0.12365172 -0.11970478 -0.266183
00000000: 1b0f 393f 9785 cdbf a90e f7bd 2c4b 01be
00000010: 2dfa 03be 2331 04be 727a f7bd c795 f9bd
00000020: 5827 f5bd 46e8 fdbd b2d4 2abe 007c f4bd
00000030: dd2a 34be 855e fcbd b835 f8bd ceae 30be
00000040: eb93 fcbd 181b f8bd 1b41 fbbd 4b92 00be
00000050: 16a9 f8bd 3c90 f9bd 22e7 f9bd e144 fabd
00000060: 9e79 05be ec31 fcbd 5566 88be fbbe 01be
00000070: 220f 03be 71fd 2cbe f475 f2bd 58b7 febd
00000080: 32ae 28be 86ec 43be 3ad9 53be 30fa 03be
00000090: 53b7 febd 84fe f7bd a0ee fcbd c944 febd
000000a0: c825 02be 0150 26be 5603 78be 1946 8abe
000000b0: 1f31 04be f3a9 f3bd f086 2ebe 35f5 29be
000000c0: 135f fbbd c8ab 6fbe 202d 53be 92e9 85be
000000d0: 23d2 f7bd 93d8 f6bd d511 2cbe 0ffe 22be
000000e0: c227 f5bd 1c3d fdbd c9dc 14be 8912 85be
000000f0: 1d0f 03be 6c55 6fbe 2f35 72be b4ef f7bd
00000100: 7648 28be 35f5 29be 64bc 48be 1fd2 f7bd
00000110: 155f fbbd 6110 fcbd d211 2cbe 7afa 2bbe
00000120: ddd4 29be b935 f8bd 8c98 01be 77d6 f3bd
00000130: 2ebd 6cbe c444 febd 1746 8abe 1185 6fbe
00000140: 08c2 92be 0ed7 f9bd b33c f7bd 911d 83be
00000150: 2838 f5bd 23a2 6cbe 707a f7bd c677 f3bd
00000160: c095 f9bd 5723 6cbe 71fd 2cbe 9d3c f7bd
00000170: 14a7 31be 85fe f7bd ee34 f3bd 4b3c f7bd
00000180: c6f2 f4bd c7b4 f3bd f131 fcbd 1d3d fdbd
00000190: c827 f5bd 2349 88be
